(764, 128, 128, 3)
(1052, 128, 128, 3)
(784, 128, 128, 3)
(733, 128, 128, 3)
(984, 128, 128, 3)
41
(7917, 128, 128, 3)
(7917,)
Model: "sequential"
_________________________________________________________________
Layer (type)                 Output Shape              Param #   
=================================================================
conv2d (Conv2D)              (None, 124, 124, 16)      1216      
_________________________________________________________________
max_pooling2d (MaxPooling2D) (None, 41, 41, 16)        0         
_________________________________________________________________
conv2d_1 (Conv2D)            (None, 37, 37, 64)        25664     
_________________________________________________________________
max_pooling2d_1 (MaxPooling2 (None, 12, 12, 64)        0         
_________________________________________________________________
conv2d_2 (Conv2D)            (None, 10, 10, 256)       147712    
_________________________________________________________________
max_pooling2d_2 (MaxPooling2 (None, 5, 5, 256)         0         
_________________________________________________________________
dropout (Dropout)            (None, 5, 5, 256)         0         
_________________________________________________________________
flatten (Flatten)            (None, 6400)              0         
_________________________________________________________________
dense (Dense)                (None, 2560)              16386560  
_________________________________________________________________
dropout_1 (Dropout)          (None, 2560)              0         
_________________________________________________________________
dense_1 (Dense)              (None, 640)               1639040   
_________________________________________________________________
dense_2 (Dense)              (None, 128)               82048     
_________________________________________________________________
dropout_2 (Dropout)          (None, 128)               0         
_________________________________________________________________
dense_3 (Dense)              (None, 41)                5289      
=================================================================
Total params: 18,287,529
Trainable params: 18,287,529
Non-trainable params: 0
_________________________________________________________________
Epoch 1/100
185/185 - 16s - loss: 3.1329 - accuracy: 0.1959 - val_loss: 2.7908 - val_accuracy: 0.2551
Epoch 2/100
185/185 - 16s - loss: 2.7121 - accuracy: 0.2650 - val_loss: 2.7082 - val_accuracy: 0.2944
…
